snake-ai-search/model/model.pth (torch, 16787 bytes, 4 tensors)

linear1.weight f4 [256, 11]
0.15059993 0.21557978 0.059958164 0.2237101 0.1568518 -0.14175875 -0.11236772 -0.22063215
0.10756879 -0.102083154 -0.18514444 -0.034962885 -0.056591723 0.15854627 0.31562182 0.09833787
0.21137649 -0.28685597 0.21350421 0.27250358 0.022324761 0.073759004 0.19933203 0.06728755
-0.22461079 0.058280244 0.04387708 0.26840878 0.25652716 -0.20165016 -0.13878605 0.12817928
-0.25392628 0.021599835 -0.2898875 -0.15211435 -0.08156476 -0.17682202 0.13512419 0.09982558
-0.12819324 0.15412325 0.18214212 -0.28104892 -0.2883312 -0.1287684 0.0791727 -0.006806248
-0.26657006 -0.15298162 -0.26237443 0.10659361 -0.28886297 -0.12428318 0.0061566085 0.0075451303
0.27314112 0.31212467 -0.18242536 -0.025772788 -0.23583667 0.15740174 0.1998261 -0.15766111
0.08307858 0.19620462 0.10241383 -0.18089715 0.1495606 -0.14319389 -0.27149826 -0.24624568
-0.12889732 -0.087065265 -0.1300994 -0.21237397 -0.18170263 0.048277892 -0.20700252 0.13168682
-0.12877023 -0.068137504 0.18004405 0.21409853 -0.017280353 0.25394297 -0.17543244 -0.09231691
-0.020321483 -0.08185691 -0.003197737 -0.31803524 -0.204098 0.12878215 -0.21205471 0.20936356
-0.15907194 0.18980081 0.043256987 0.24192822 -0.19296414 -0.084665544 0.12999645 0.08275428
0.25044197 -0.13651341 -0.083493434 -0.22426262 0.04770446 0.21687134 -0.19384642 0.24032944
-0.2743344 0.093699776 0.016494121 0.22380304 0.16663343 -0.0963241 0.24231826 0.151802
-0.31277573 -0.06651276 -0.14875987 0.015007774 -0.10548182 -0.05581357 0.1890481 0.23521179
-0.28653863 0.100542575 -0.06730399 0.11526932 -0.2643271 0.10085285 -0.04095657 0.20894042
-0.16314527 -0.18703084 0.05940373 0.123807766 0.20874931 -0.1616326 0.0084173065 0.16157815
0.19882078 -0.19827655 0.08878884 0.28116444 -0.097856306 -0.0951714 0.26022702 -0.16966249
-0.25275162 -0.2307778 -0.084472716 -0.08736864 -0.1791889 0.028227545 0.00096310227 0.24708037
0.1073029 0.08116771 0.1371016 0.1588323 0.016667655 0.066596836 -0.05824761 0.19698623
0.1725728 0.030624341 -0.007264365 -0.2528952 -0.20663439 0.096990116 0.07692128 -0.076922566
0.115277566 -0.24388343 -0.1437884 -0.038580567 0.23576413 -0.28734756 -0.07267454 0.14799638
-0.09735765 -0.26147178 -0.24230102 0.10297733 -0.24597833 -0.30206686 0.16301012 -0.11935616
0.06654317 0.12666942 -0.08974939 0.120611325 0.06087646 -0.11583016 -0.097739816 0.09758324
0.17441767 0.078790344 0.16237882 -0.18119845 0.13910538 0.0059016184 -0.1993325 -0.2776507
0.052567467 -0.060230255 -0.15097137 -0.2747423 0.12842995 -0.016415782 0.20445643 0.25051764
0.24139 0.14040388 0.14930166 0.24008732 -0.092515446 0.08188638 0.044185344 -0.05318778
0.04371142 0.13928717 0.07307058 0.31345096 0.15270428 -0.11446908 0.28966755 -0.2668624
-0.094026655 -0.077289075 0.077843994 -0.10790977 -0.034002006 -0.16307718 0.08928585 0.107810676
-0.08180526 -0.1670084 -0.28397396 -0.11813442 0.33127433 -0.16672833 -0.069619656 -0.2902043
0.07584358 0.10449539 0.28040734 -0.029379006 -0.15639944 -0.22111839 0.079438746 -0.26517305
00000000: de36 1a3e f2c0 5c3e b196 753d 4314 653e
00000010: c29d 203e 3529 11be 0c21 e6bd 65ed 61be
00000020: 074d dc3d f910 d1bd 8196 3dbe 3e35 0fbd
00000030: b9cc 67bd f459 223e 2f99 a13e 5d65 c93d
00000040: 1473 583e c9de 92be d9a0 5a3e 9785 8b3e
00000050: 6be2 b63c f60e 973d b21d 4c3e 0ece 893d
00000060: 5f00 66be 44b7 6e3d 74b8 333d e06c 893e
00000070: 8757 833e 617d 4ebe ee1d 0ebe 6e41 033e
00000080: a002 82be 23f2 b03c 226c 94be ddc3 1bbe
00000090: 6d0b a7bd d510 35be ff5d 0a3e 5b71 cc3d
000000a0: 1745 03be 7cd2 1d3e 7783 3a3e a5e5 8fbe
000000b0: 26a0 93be dddb 03be 4c25 a23d f206 dfbb
000000c0: df7b 88be 37a7 1cbe f155 86be c04d da3d
000000d0: d9e5 93be 2e88 febd 60bd c93b 243d f73b
000000e0: 27d9 8b3e cece 9f3e b7cd 3abe 7421 d3bc
000000f0: 2b7f 71be ec2d 213e 379f 4c3e ea71 21be
00000100: 1a25 aa3d dde9 483e 58be d13d 1a3d 39be
00000110: 6a26 193e 6ba1 12be d201 8bbe d427 7cbe
00000120: a9fd 03be 464f b2bd c738 05be 9078 59be
00000130: 4110 3abe 0abf 453d 78f8 53be e9d8 063e
00000140: 58dc 03be ad8b 8bbd 785d 383e a53c 5b3e
00000150: 878f 8dbc d004 823e 90a4 33be a610 bdbd
00000160: 3d79 a6bc 98a4 a7bd 2091 51bb 84d5 a2be
00000170: 11ff 50be 78df 033e df24 59be 6763 563e
00000180: c1e3 22be 255b 423e 3d2e 313d 08bc 773e
00000190: 6498 45be 2165 adbd ca1d 053e 137b a93d
000001a0: ee39 803e 2cca 0bbe 9bfe aabd 1aa5 65be
000001b0: c065 433d 8513 5e3e ad7f 46be ec18 763e
000001c0: 8f75 8cbe abe5 bf3d ae1e 873c a02c 653e
000001d0: f4a1 2a3e 9245 c5bd 4722 783e fc71 1b3e
000001e0: 2424 a0be d837 88bd 8254 18be 2be3 753c
000001f0: da06 d8bd c59c 64bd d395 413e 5cdb 703e
00000200: 31b5 92be 44e9 cd3d add6 89bd 5212 ec3d
00000210: e255 87be f08b ce3d 14c2 27bd 7af4 553e
00000220: 8e0f 27be 0385 3fbe 5351 733d ed8e fd3d
00000230: 61c2 553e 0483 25be bee8 093c be74 253e
00000240: ad97 4b3e 0209 4bbe ecd6 b53d c9f4 8f3e
00000250: e368 c8bd 39e9 c2bd 7a3c 853e 01bc 2dbe
00000260: a968 81be 0451 6cbe 0800 adbd 54ee b2bd
00000270: 4c7d 37be 743d e73c b378 7c3a a302 7d3e
00000280: 9fc1 db3d 423b a63d 5d64 0c3e efa4 223e
00000290: 9b8a 883c ec63 883d 0c95 6ebd c2b6 493e
000002a0: edb6 303e e6df fa3c e909 eebb 7b7b 81be
000002b0: f797 53be c1a2 c63d e788 9d3d 9489 9dbd
000002c0: a516 ec3d 94bc 79be 443d 13be a806 1ebd
000002d0: 276c 713e 381f 93be 64d6 94bd 5d8c 173e
000002e0: 7363 c7bd a1df 85be c21d 78be c7e5 d23d
000002f0: bee1 7bbe 82a8 9abe 20ec 263e 0171 f4bd
00000300: c947 883d a1b5 013e 87ce b7bd 1203 f73d
00000310: 9859 793d 5d38 edbd d02b c8bd b9d9 c73d
00000320: 8c9a 323e d55c a13d a246 263e 168c 39be
00000330: a471 0e3e 5d62 c13b d21d 4cbe 3c28 8ebe
00000340: fc50 573d 00b4 76bd 3d98 1abe 06ab 8cbe
00000350: 2483 033e 647a 86bc 075d 513e d943 803e
00000360: f12e 773e 09c6 0f3e 89e2 183e 73d9 753e
00000370: bd78 bdbd 0cb4 a73d b1fb 343d 6edb 59bd
00000380: bf0a 333d 4ca1 0e3e 07a6 953d a57c a03e
00000390: 835e 1c3e c46e eabd 4e4f 943e 30a2 88be
000003a0: 0c91 c0bd bc49 9ebd ac6c 9f3d ccff dcbd
000003b0: b045 0bbd b4fd 26be 80db b63d d8cb dc3d
000003c0: 8489 a7bd 4004 2bbe 0965 91be 75f0 f1bd
000003d0: ca9c a93e d5ba 2abe c094 8ebd a895 94be
000003e0: e153 9b3d ae01 d63d 8d91 8f3e 3eac f0bc
000003f0: 2d27 20be dc6c 62be c8b0 a23d c3c4 87be

linear1.bias f4 [256]
0.0035982751 -0.15869725 0.1626551 0.043524235 -0.029592277 0.2784864 -0.13944629 -0.25102445
0.14563836 -0.003566984 -0.08195867 -0.07004915 0.014882405 0.18982293 0.29112533 -0.15741627
0.022909187 0.13627231 -0.21518636 -0.09148337 0.25147334 -0.27171183 0.09430845 0.010380396
-0.104680486 -0.050478652 -0.14052187 0.10602627 -0.17188819 0.2628084 0.27393806 -0.25254387
-0.20114061 0.21164279 -0.029070357 -0.25148505 -0.29252887 0.0025673807 -0.1889979 -0.24787435
-0.18562004 -0.27696005 -0.22205453 0.0034230943 -0.06335173 0.19971251 0.26517406 -0.089268684
-0.17164613 -0.2029948 0.27605158 0.18992764 -0.084739365 -0.09650277 0.09125177 -0.15319164
0.115756676 0.032308858 -0.26394084 -0.13237979 0.084307596 -0.04580139 0.0147920055 0.15499593
0.25684994 -0.103893705 -0.09181396 0.057236474 -0.056202583 -0.29053912 0.14331159 0.00038921996
0.19915442 -0.24572328 0.117302656 0.025356287 0.04376941 -0.1975616 0.028395152 -0.20463106
0.016820963 0.2342046 0.33840677 0.28172958 -0.14567554 0.09302404 -0.08523992 0.23323198
0.03356472 -0.2472857 -0.31952146 -0.11351382 -0.22696143 0.31442475 -0.008188531 0.24257286
0.082795456 -0.021757187 -0.24546115 -0.21707156 0.18936358 -0.18018082 0.11917817 -0.23612843
0.22847068 0.28309217 -0.16415633 0.29143327 -0.056585662 -0.16375142 0.0873216 0.14061454
0.22228277 0.20717162 0.041290183 0.21769328 0.07235477 -0.20170672 0.09062066 -0.10807462
0.06260966 -0.0024888078 -0.20188871 0.0010628323 -0.10713271 -0.15845053 0.089301996 0.1129871
-0.2498943 0.18168211 -0.29081327 0.012199216 -0.06708835 -0.2952837 -0.06462799 0.0648929
-0.03636444 0.27296013 0.18777807 -0.11445996 0.13424581 0.30053765 -0.23584422 -0.27915043
-0.21322317 -0.26909816 -0.18746471 0.23342204 -0.04911302 0.19359368 0.15643486 -0.08903868
-0.019623253 0.095616885 -0.15103024 -0.24264516 -0.22101703 0.19416764 0.0036864085 0.122879006
0.21811426 -0.12610139 0.21661867 -0.24264783 -0.2511026 0.11766712 -0.009045342 0.11374719
-0.11331636 0.07029613 0.26550758 0.2953826 0.28276405 0.07843014 -0.21856864 0.18323742
0.2471601 0.1666281 -0.07261692 -0.14338003 0.25757462 -0.17603673 0.26774734 -0.011108823
-0.1349683 -0.2803401 0.18120758 0.22160342 -0.1332058 0.24424331 0.08027366 -0.09817051
0.08888691 -0.29240182 -0.27917823 -0.1036818 -0.11336533 -0.09351197 0.13675225 0.14780709
-0.05985283 -0.20969486 0.077679075 0.08239305 0.080661066 -0.09044326 -0.18404755 -0.0073279263
-0.22735348 0.13137597 -0.033592958 0.120400764 0.05242806 0.08345054 0.24734221 -0.20394807
0.29127997 -0.06922643 0.07776566 -0.14854504 -0.2546284 -0.28112802 -0.23734684 -0.22207034
-0.056680053 0.24998964 -0.16735938 0.28646895 0.28703573 -0.2321583 -0.016097298 -0.10484356
-0.122109964 0.042693727 0.20035633 0.17237025 0.311795 0.1268013 0.284068 0.010587379
0.03911814 0.06871104 -0.16996273 -0.06709389 -0.1989856 0.28490952 -0.34913525 -0.22386569
0.022943357 0.0020786033 -0.02135116 0.16931918 -0.052137792 0.25052032 0.029003542 -0.24878886
00000000: 0ad1 6b3b 8881 22be 0f8f 263e 7846 323d
00000010: 816b f2bc c595 8e3e 02cb 0ebe 4786 80be
00000020: 3922 153e 10c4 69bb f2d9 a7bd ee75 8fbd
00000030: 55d5 733c f160 423e 610e 953e bb31 21be
00000040: 0cac bb3c f88a 0b3e d059 5cbe a25b bbbd
00000050: 1dc1 803e d01d 8bbe ca24 c13d 8912 2a3c
00000060: b962 d6bd b4c2 4ebd f7e4 0fbe 4d24 d93d
00000070: 7503 30be d38e 863e 9c41 8c3e 6e4d 81be
00000080: cef7 4dbe e3b8 583e f524 eebc a6c2 80be
00000090: 58c6 95be 8041 283b aa88 41be c6d2 7dbe
000000a0: 2e13 3ebe b5cd 8dbe 4362 63be fe55 603b
000000b0: 8dbe 81bd 7081 4c3e e5c4 873e 80d2 b6bd
000000c0: 01c4 2fbe dedd 4fbe a256 8d3e 647c 423e
000000d0: d58b adbd 3fa3 c5bd 35e2 ba3d 45de 1cbe
000000e0: d611 ed3d 4b56 043d 4123 87be 918e 07be
000000f0: 76a9 ac3d 3d9a 3bbd 2b5a 723c 41b7 1e3e
00000100: d681 833e 39c6 d4bd f508 bcbd cb70 6a3d
00000110: ae34 66bd 8bc1 94be 46c0 123e 3810 cc39
00000120: 23ef 4b3e e29e 7bbe 603c f03d fdb7 cf3c
00000130: 8e47 333d 974d 4abe f39c e83c ce8a 51be
00000140: 1ecc 893c 55d3 6f3e a743 ad3e dc3e 903e
00000150: f82b 15be 6383 be3d 4492 aebd 5dd4 6e3e
00000160: 297b 093d 7638 7dbe 5198 a3be ef79 e8bd
00000170: 9468 68be 48fc a03e 3029 06bc 0565 783e
00000180: aa90 a93d 213c b2bc 2b5a 7bbe 0248 5ebe
00000190: 87e8 413e 5281 38be af13 f43d a7cb 71be
000001a0: 38f4 693e 75f1 903e 9918 28be be36 953e
000001b0: 5ec6 67bd 74ae 27be abd5 b23d 42fd 0f3e
000001c0: 189e 633e cc24 543e e51f 293d fdea 5e3e
000001d0: bd2e 943d 358c 4ebe 5397 b93d 3a56 ddbd
000001e0: 7e39 803d 441b 23bb eabb 4ebe bc4e 8b3a
000001f0: 6568 dbbd db40 22be f7e3 b63d c865 e73d
00000200: 4be4 7fbe e00a 3a3e 7ae5 94be 38df 473c
00000210: 9e65 89bd 6d2f 97be ae5b 84bd 92e6 843d
00000220: e1f2 14bd 6ec1 8b3e e548 403e fc69 eabd
00000230: bc77 093e 12e0 993e 2681 71be ceec 8ebe
00000240: 2d57 5abe 3cc7 89be c0f6 3fbe 3006 6f3e
00000250: bc2a 49bd 6c3d 463e 7630 203e e959 b6bd
00000260: f2c0 a0bc c9d2 c33d aca7 1abe f977 78be
00000270: 4a52 62be e2d3 463e ac97 713b fda7 fb3d
00000280: 5859 5f3e b920 01be 49d1 5d3e ac78 78be
00000290: 8590 80be 76fb f03d ea32 14bc 49f4 e83d
000002a0: 6812 e8bd 6bf7 8f3d 9cf0 873e 633c 973e
000002b0: 73c6 903e fb9f a03d 75d0 5fbe 97a2 3b3e
000002c0: 8a17 7d3e 8fa0 2a3e 2eb8 94bd 37d2 12be
000002d0: d2e0 833e f942 34be 2e16 893e c801 36bc
000002e0: 2135 0abe bd88 8fbe 7b8e 393e 02ec 623e
000002f0: 1a67 08be eb1a 7a3e 8466 a43d 9f0d c9bd
00000300: 570a b63d b1b5 95be 73f0 8ebe 2057 d4bd
00000310: 152c e8bd 3483 bfbd c808 0c3e be5a 173e
00000320: 3e28 75bd 40ba 56be 3516 9f3d b0bd a83d
00000330: a131 a53d 513a b9bd f676 3cbe 1a1f f0bb
00000340: 5acf 68be 6c87 063e c598 09bd ad94 f63d
00000350: cebe 563d 1ee8 aa3d 4747 7d3e c3d7 50be
00000360: a622 953e 96c6 8dbd 9a43 9f3d 311c 18be
00000370: a75e 82be 03f0 8fbe 0d0b 73be 6866 63be
00000380: 5829 68bd 49fd 7f3e 4260 2bbe 0fac 923e
00000390: 59f6 923e e8ba 6dbe 7bde 83bc 38b8 d6bd
000003a0: ca14 fabd 9edf 2e3d 362a 4d3e d481 303e
000003b0: 98a3 9f3e 33d8 013e 5c71 913e b076 2d3c
000003c0: 583a 203d 60b8 8c3d b60a 2ebe 8568 89bd
000003d0: e2c2 4bbe a9df 913e dbc1 b2be 0c3d 65be
000003e0: b5f3 bb3c 2d39 083b a1e8 aebc 0262 2d3e
000003f0: 708e 55bd 3344 803e d698 ed3c 82c2 7ebe

linear2.weight f4 [3, 256]
0.04538644 -0.054958157 -0.07944786 0.02106783 0.046090428 -0.0796055 -0.021493688 0.03664878
0.021671128 0.042740565 -0.060434394 -0.00705941 -0.021613855 -0.0020147243 -0.065683834 -0.021950843
-0.0059970547 -0.041315354 -0.033245567 -0.029332425 -0.07776979 0.05503401 -0.0012872673 -0.08116503
-0.03439544 -0.058472946 0.0437326 0.04431843 0.048479415 0.026984664 -0.062633775 0.058246337
-0.022249296 -0.0053133634 -0.034571 -0.08353128 -0.023745224 -0.04788728 0.011975194 0.00017197678
-0.039371375 -0.017911568 0.015275449 -0.010122664 -0.06112586 -0.00088640087 -0.060108177 -0.09021897
-0.04365928 -0.08988988 -0.014173337 0.04006409 -0.039435413 0.025522657 0.037408784 -0.040254895
-0.060559507 0.0058853687 0.013439805 -0.03285537 -0.050628483 -0.090257056 0.0037893055 -0.04758601
-0.009311417 0.01729208 -0.055837315 -0.07618929 -0.05676225 -0.022245264 0.04391372 0.028383758
-0.06951194 -0.021085912 -0.07617873 -0.020568574 -0.06235676 0.029415838 0.02877114 -0.061707422
-0.0122364275 -0.08573147 -0.057042155 -0.056972023 0.07247471 -0.08209849 0.02684544 -0.012632851
-0.021752004 0.018733041 -0.048424 0.007856254 0.006870436 -0.045907654 -0.023642058 0.020941552
0.00046975413 -0.024786942 -0.0166507 0.043505173 -0.022172531 -0.015781336 -0.038410902 0.020085068
-0.03903674 -0.009614277 -0.048073363 -0.063750334 -0.039432853 -0.04742965 -0.016502883 -0.042055354
-0.05061007 0.0111886775 -0.05499799 0.011435879 0.011033093 0.00796564 -0.047628544 0.043235924
-0.04215381 -0.06302704 0.054714903 -0.0438122 -0.03903841 0.01963654 0.01446448 0.00019551642
-0.088205114 -0.0058107534 -0.06029319 -0.057601135 -0.06213331 -0.00800921 -0.008574085 0.00084159314
-0.06424285 0.034780595 -0.018876318 -0.018561654 -0.032860693 0.04105747 -0.06018072 -0.043470874
-0.05923459 -0.0035351126 -0.039909743 0.024826342 -0.030498309 -0.042129777 0.029542446 0.044441536
-0.010793483 0.0046610995 -0.010247355 0.03803522 0.00130184 0.020191347 -0.0040273513 -0.027122067
-0.021151716 -0.009096769 0.028669087 -0.04229911 -0.058817185 -0.06271162 -0.0276395 -0.072953686
-0.06327517 0.0049695144 -0.050923992 -0.033134263 -0.057884555 -0.03494474 0.008673735 -0.010726626
-0.027420253 -0.002144854 -0.025850402 -0.09034423 -0.07054533 -0.050641216 -0.008944484 -0.081604116
-0.08316821 0.032671627 -0.02117559 -0.032293133 0.041200224 -0.07811165 0.029226515 -0.044564128
0.019353634 -0.024907969 -0.05946511 0.060429048 -0.065453105 -0.0407235 -0.05270822 0.04012627
-0.037581474 0.01711332 -0.06919658 0.0022540945 -0.04345738 -0.038642097 -0.020675573 0.0126957055
-0.061095744 -0.089887954 0.05128739 -0.03583816 -0.076178744 -0.01586379 -0.04261111 0.018833116
-0.06946197 -0.08308821 -0.0084055625 0.0033440571 0.008013547 0.045168392 0.060355324 0.01301716
-0.091699116 -0.061325964 0.0019317765 -0.054696288 -0.051990498 0.020031594 -0.044454273 -0.06951418
-0.054266945 -0.04541718 -0.0008606885 0.010443706 -0.022443637 0.0064919214 -0.070993304 0.011356049
-0.041750893 -0.010461223 -0.032409683 0.0010596523 -0.04652786 0.030949477 0.013140515 -0.06713769
-0.027483929 -0.064044744 0.034144368 -0.08732999 0.027798556 0.0037122224 -0.0145519385 -0.013375965
00000000: 22e7 393d ce1b 61bd 8fb5 a2bd 7196 ac3c
00000010: 51c9 3c3d 3508 a3bd 8813 b0bc 081d 163d
00000020: a687 b13c bb10 2f3d 0e8a 77bd a052 e7bb
00000030: 8a0f b1bc 7709 04bb 3f85 86bd 41d2 b3bc
00000040: f182 c4bb 4a3a 29bd 812c 08bd 8e4a f0bc
00000050: c545 9fbd 586b 613d 86b9 a8ba da39 a6bd
00000060: 3ce2 0cbd 5481 6fbd f420 333d 3e87 353d
00000070: 5a92 463d f10e dd3c 2346 80bd b693 6e3d
00000080: 2844 b6bc b91b aebb 529a 0dbd 7312 abbd
00000090: 5885 c2bc 7425 44bd 9b33 443c aa54 3439
000000a0: e143 21bd 48bb 92bc e045 7a3c 88d9 25bc
000000b0: 1c5f 7abd 5b5d 68ba fe33 76bd b9c4 b8bd
000000c0: 13d4 32bd 2f18 b8bd 4937 68bc 3e1a 243d
000000d0: 0787 21bd e414 d13c f439 193d 51e2 24bd
000000e0: 3f0d 78bd 0dda c03b a132 5c3c 5a93 06bd
000000f0: d05f 4fbd b1d8 b8bd ff55 783b 8ce9 42bd
00000100: ea8e 18bc 1fa8 8d3c abb5 64bd 2109 9cbd
00000110: 887f 68bd b33b b6bc dfde 333d 0e85 e83c
00000120: 475c 8ebd 5dbc acbc 9803 9cbd 6d7f a8bc
00000130: cd69 7fbd 7cf9 f03c 74b1 eb3c ecc0 7cbd
00000140: 4c7b 48bc fb93 afbd 09a5 69bd 7f5b 69bd
00000150: 9f6d 943d 4123 a8bd f8ea db3c 04fa 4ebc
00000160: 4231 b2bc 0976 993c 3f58 46bd 84b7 003c
00000170: 6521 e13b aa09 3cbd fdac c1bc 9e8d ab3c
00000180: 5549 f639 fc0d cbbc 0c67 88bc 7b32 323d
00000190: 2ba3 b5bc dc47 81bc c054 1dbd 7189 a43c
000001a0: fde4 1fbd 3385 1dbc 93e8 44bd 898f 82bd
000001b0: 5884 21bd 9845 42bd 0e31 87bc 3c42 2cbd
000001c0: 814c 4fbd b750 373c 9345 61bd 8e5d 3b3c
000001d0: 25c4 343c 5182 023c 2616 43bd 2718 313d
000001e0: 79a9 2cbd 5214 81bd bc1c 603d 6c74 33bd
000001f0: bde6 1fbd cfdc a03c 6dfc 6c3c 8a03 4d39
00000200: e2a4 b4bd 2268 bebb fef5 76bd 2bef 6bbd
00000210: 7f7f 7ebd 1039 03bc 527a 0cbc 5c9e 5c3a
00000220: c191 83bd 1976 0e3d 82a2 9abc 9c0e 98bc
00000230: ef98 06bd e12b 283d 0f80 76bd 840e 32bd
00000240: f89f 72bd 59ad 67bb 6678 23bd 9d60 cb3c
00000250: 97d7 f9bc 4690 2cbd 0003 f23c 5408 363d
00000260: 26d7 30bc 23bc 983b 86e4 27bc d2ca 1b3d
00000270: 80a2 aa3a 5368 a53c dff7 83bb 192f debc
00000280: 5d46 adbc 9d0a 15bc 6fdb ea3c d541 2dbd
00000290: 4aea 70bd f36e 80bd 3c6c e2bc be68 95bd
000002a0: 6a96 81bd 4fd7 a23b ad95 50bd cbb7 07bd
000002b0: 5b18 6dbd 3722 0fbd 481c 0e3c bbbe 2fbc
000002c0: 70a0 e0bc ae90 0cbb 39c4 d3bc 6506 b9bd
000002d0: 127a 90bd 2a6d 4fbd e38b 12bc 0f20 a7bd
000002e0: 1854 aabd afd2 053d 6e78 adbc ce45 04bd
000002f0: 91c1 283d 00f9 9fbd 726c ef3c e088 36bd
00000300: 838b 9e3c cc0b ccbc b091 73bd 7384 773d
00000310: 470c 86bd afcd 26bd 93e4 57bd 725b 243d
00000320: 08ef 19bd 3c31 8c3c f0b6 8dbd 6eb9 133b
00000330: 5e00 32bd 2d47 1ebd d25f a9bc a601 503c
00000340: 883f 7abd 2d17 b8bd ba12 523d 09cb 12bd
00000350: 9a03 9cbd c7f4 81bc fd88 2ebd e847 9a3c
00000360: 1442 8ebd 272a aabd 7cb7 09bc f827 5b3b
00000370: 414b 033c 7e02 393d 2537 773d ed45 553c
00000380: bfcc bbbd ef30 7bbd aa33 fd3a 3709 60bd
00000390: fdf3 54bd 4c19 a43c af15 36bd 735d 8ebd
000003a0: 0447 5ebd 5d07 3abd d49f 61ba 141c 2b3c
000003b0: b8db b7bc 2fba d43b f064 91bd b90e 3a3c
000003c0: fc02 2bbd 8d65 2bbc 04c0 04bd 08e4 8a3a
000003d0: ff93 3ebd c289 fd3c 514b 573c 7c7f 89bd
000003e0: fa25 e1bc e429 83bd f7da 0b3d 11da b2bd
000003f0: ccb9 e33c c248 733b 416b 6ebc dd26 5bbc

linear2.bias f4 [3]
-0.014555896 0.012031382 0.020684652
00000000: da7b 6ebc 461f 453c dc72 a93c
